…
hotoUrl":"","userId":"13392954308681420968"}},"outputId":"22d85e30-a2a7-4b06-b297-57ec1086cd71"},"source":["model = LSTM_model()\n","model.summary()\n","model.compile(optimizer='adam', \n","              loss='mean_squared_error',\n","              metrics=['acc'])"],"execution_count":17,"outputs":[{"output_type":"stream","text":["Model: \"sequential_1\"\n","_________________________________________________________________\n","Layer (type)                 Output Shape              Param #   \n","=================================================================\n","lstm_3 (LSTM)                (None, 60, 50)            10400     \n","_________________________________________________________________\n","dropout_3 (Dropout)          (None, 60, 50)            0         \n","_________________________________________________________________\n","lstm_4 (LSTM)                (None, 60, 50)            20200     \n","_________________________________________________________________\n","dropout_4 (Dropout)          (None, 60, 50)            0         \n","_________________________________________________________________\n","lstm_5 (LSTM)                (None, 50)                20200     \n","_________________________________________________________________\n","dropout_5 (Dropout)          (None, 50)                0         \n","_________________________________________________________________\n","dense_1 (Dense)              (None, 1)                 51        \n","=================================================================\n","Total params: 50,851\n","Trainable params: 50,851\n","Non-trainable params: 0\n","_________________________________________________________________\n"],"name":"stdout"}]},{"cell_type":"code","metadata":{"execution":{"iopub.execute_input":"2021-05-10T17:56:31.046746Z","iopub.status.busy":"2021-05-10T17:56:31.046153Z"
…
